app/neural_network/best_model.pth (torch, 57892 bytes, 8 tensors)

layers.0.weight f4 [128, 23]
-0.0592678 0.03280864 -0.48127636 -0.06710793 0.005789917 -0.048830427 -0.033444546 0.05380921
0.20328027 0.024565663 0.19669458 -0.12970634 0.14255933 -0.15608665 -0.018462274 0.15464225
0.07259962 0.13715209 -0.015306024 -0.032435633 -0.14751002 0.18084241 0.079875566 0.16822237
-0.15442604 -0.039160468 -0.23284952 0.07407183 0.021208337 0.2117898 -0.06271009 0.21946013
0.34055018 -0.23910326 0.24398792 0.065774105 -0.24823467 0.35783118 0.1389 0.13065907
-0.30031937 -0.08267795 0.3735145 -0.06301268 0.029549725 0.21470988 -0.00981658 0.28819945
-0.47907478 0.054079004 -0.10818127 -0.023605984 0.113974385 -0.13684914 0.24665436 -0.16570848
0.059918467 -0.15045121 -0.035065077 0.063233286 -0.06619211 -0.014642126 0.093527496 -0.018271426
-0.0560433 0.21322626 0.116470546 0.18774763 -0.22014536 -0.35306683 -0.062179364 0.5106431
0.14285058 0.045193467 -0.089906 -0.07354046 0.18578553 -0.07785966 0.19754386 -0.05353374
0.05547954 0.047995128 0.28717056 0.10120412 0.321697 -0.040326934 -0.19932108 0.0068747397
-0.079063594 0.034019925 -0.13510615 -0.04533214 -0.04616462 0.20468569 -0.7023686 -0.027942466
-0.036634985 -0.03395344 -0.003312252 0.011187188 0.019720199 0.050832592 0.072426155 0.09912063
0.15698206 0.0006830917 0.035968635 -0.06826502 -0.120971695 -0.04566805 -0.0035764144 0.07058812
-0.13947213 0.023237642 -0.10749978 -0.0045844154 0.21307446 -0.6682048 0.05608706 0.09694378
-0.04476094 -0.025810879 0.0052148174 0.11933333 -0.029286858 -0.027771324 -0.14198287 0.06906667
0.052737266 -0.1068373 0.040554546 0.15232038 -0.24792674 0.068414874 -0.14953035 -0.010944773
-0.052647915 0.07352909 0.022713238 -0.1606564 0.45803553 0.04894779 0.08954856 0.09382998
-0.13852239 0.10579157 -0.056103885 -0.038408678 0.09061656 0.07180101 0.014530213 0.013772038
-0.13877243 0.0550618 -0.08935255 0.07770392 -0.18104295 -0.1293677 0.12642686 -0.12932539
0.21075559 0.017797822 -0.36794806 -0.12335264 -0.12658256 0.123207465 -0.08078673 -0.19536759
-0.14717601 -0.0969892 -0.37109086 0.18672106 0.0179341 0.18270305 -0.03399476 -0.15836863
-0.029772993 -0.025937324 -0.13749531 0.28373116 0.14089349 -0.14988396 0.17634284 0.0079668695
0.12159842 0.07903271 -0.5638942 0.046234015 0.025253395 0.023160595 0.101939656 0.050701454
0.018833047 0.0056374734 0.19550501 0.101657815 0.09088818 -0.1814226 0.053910486 0.064240634
-0.00043219348 -0.22263676 0.15681534 -0.14698479 -0.14955609 -0.10693328 -0.11120819 0.043879606
0.07372493 -0.04650336 -0.104023516 -0.17788444 0.023175837 -0.12582143 0.06841517 0.27665386
0.21931995 -0.01475062 -0.2436518 0.07444602 -0.030493055 0.09214643 -0.012366873 0.11882549
0.08866216 0.0016462298 -0.18860248 -0.11212348 -0.028438866 0.18675852 -0.20242116 0.1656852
-0.55041593 0.036257226 0.052319553 -0.011830579 0.07644762 -0.05260492 0.23886861 0.0034531117
-0.085068434 -0.11670505 0.07082234 -0.09722045 -0.124416485 0.059891872 0.11889678 0.12750033
0.2501658 -0.035844162 -0.18218625 0.21461463 0.12358298 0.14377424 -0.26350152 0.12597175
00000000: cbc2 72bd 5a62 063d db69 f6be e26f 89bd
00000010: 58b9 bd3b 6a02 48bd 26fd 08bd 0c67 5c3d
00000020: b428 503e ee3d c93c 4e6a 493e bdd1 04be
00000030: 13fb 113e 2ed5 1fbe 323e 97bc 8a5a 1e3e
00000040: 1caf 943d 9971 0c3e 1ec6 7abc 3adb 04bd
00000050: de0c 17be c12e 393e cd95 a33d 7c42 2c3e
00000060: dc21 1ebe ba66 20bd 1b70 6ebe f9b2 973d
00000070: 1bbd ad3c 6ddf 583e 266e 80bd 28ba 603e
00000080: 985c ae3e 7cd7 74be f8d7 793e 93b4 863d
00000090: 3b31 7ebe a635 b73e cd3b 0e3e 7ecb 053e
000000a0: 76c3 99be 0f53 a9bd 4b3d bf3e cb0c 81bd
000000b0: 4412 f23c e8dc 5b3e b9d5 20bc e18e 933e
000000c0: 4a49 f5be f281 5d3d 248e ddbd 5661 c1bc
000000d0: 676b e93d 2e22 0cbe f692 7c3e 7caf 29be
000000e0: 116d 753d e20f 1abe 66a0 0fbd 7480 813d
000000f0: bb8f 87bd 87e5 6fbc 588b bf3d f5ad 95bc
00000100: a98d 65bd fc57 5a3e 1c88 ee3d ea40 403e
00000110: c96d 61be 2dc5 b4be caaf 7ebd 82b9 023f
00000120: 6c47 123e c91c 393d a320 b8bd 619c 96bd
00000130: 903e 3e3e e374 9fbd f048 4a3e 3246 5bbd
00000140: 843e 633d 8a96 443d 0508 933e 1b44 cf3d
00000150: 78b5 a43e db2d 25bd d31a 4cbe 7f45 e13b
00000160: 18ec a1bd 7a58 0b3d 4459 0abe 32ae 39bd
00000170: 1d17 3dbd 2099 513e 6ece 33bf 99e7 e4bc
00000180: 910e 16bd c312 0bbd 5e12 59bb 784a 373c
00000190: 418c a13c d635 503d 2a54 943d c2ff ca3d
000001a0: e8bf 203e 8211 333a d953 133d 88ce 8bbd
000001b0: 02c0 f7bd 6c0e 3bbd 4762 6abb 8190 903d
000001c0: c8d1 0ebe de5c be3c d828 dcbd dd38 96bb
000001d0: 3130 5a3e 780f 2bbf 8cbb 653d 768a c63d
000001e0: 3f57 37bd 5671 d3bc 0fe1 aa3b 0865 f43d
000001f0: feea efbc b080 e3bc f563 11be d472 8d3d
00000200: 0803 583d 84cd dabd 861c 263d e0f9 1b3e
00000210: 82e0 7dbe 191d 8c3d 7c1e 19be b551 33bc
00000220: 57a5 57bd 6b96 963d 1d11 ba3c 1c83 24be
00000230: a283 ea3e 7a7d 483d 3c65 b73d ef29 c03d
00000240: d0d8 0dbe 40a9 d83d 30cd 65bd 6b52 1dbd
00000250: 2d95 b93d 680c 933d 2110 6e3c 1da4 613c
00000260: 5c1a 0ebe 7b88 613d 78fe b6bd 3c23 9f3d
00000270: 5363 39be f778 04be 0b76 013e e06d 04be
00000280: 50d0 573e bdcc 913c b063 bcbe 4fa0 fcbd
00000290: dc9e 01be 3254 fc3d 8373 a5bd 710e 48be
000002a0: 4fb5 16be 46a2 c6bd 9fff bdbe ce33 3f3e
000002b0: 89ea 923c 8216 3b3e 173e 0bbd 632b 22be
000002c0: 7ee6 f3bc 837a d4bc 92cb 0cbe 3645 913e
000002d0: 6246 103e 2e7b 19be 3893 343e 7987 023c
000002e0: 9808 f93d e7db a13d 5f5b 10bf e15f 3d3d
000002f0: 35e0 ce3c 4abb bd3c bdc5 d03d 54ac 4f3d
00000300: c347 9a3c 8eba b83b 7732 483e f931 d03d
00000310: 9523 ba3d d9c6 39be 3ed1 5c3d 9890 833d
00000320: 0798 e2b9 e4fa 63be 3394 203e 2e83 16be
00000330: 3b25 19be d6ff dabd 1fc1 e3bd 1abb 333d
00000340: 19fd 963d 4f7a 3ebd 480a d5bd 5727 36be
00000350: 41db bd3c 55d7 00be 411d 8c3d 93a5 8d3e
00000360: 6995 603e 96ac 71bc dc7f 79be 2877 983d
00000370: 92cc f9bc 44b7 bc3d 6d9e 4abc c75a f33d
00000380: 8294 b53d 4ec6 d73a 0221 41be ffa0 e5bd
00000390: a0f8 e8bc a03d 3f3e 7e47 4fbe 62a9 293e
000003a0: 0fe8 0cbf 7582 143d 074d 563d 0bd5 41bc
000003b0: 9290 9c3d 4278 57bd f999 743e 9a4d 623b
000003c0: 5c38 aebd 0f03 efbd 4e0b 913d 841b c7bd
000003d0: 12ce febd 2e51 753d 2880 f33d 728f 023e
000003e0: bb15 803e 54d1 12bd 088f 3abe f0c3 5b3e
000003f0: 1319 fd3d 8e39 133e ace9 86be bdfe 003e

layers.0.bias f4 [128]
0.1548111 0.14755249 0.11058153 0.002499921 0.022392694 0.11057119 0.305881 -0.0732843
0.24986707 0.08544618 0.15279551 0.092875436 -0.1963108 -0.10693318 0.22585985 0.10329618
0.032619808 -0.10433101 -0.041969754 0.041477293 -0.0058007706 0.21946844 0.14537595 0.041333303
0.15753032 0.20169522 -0.13879602 -0.11855518 0.1545256 -0.02757702 -0.076195516 0.14162767
-0.01381698 0.077866934 0.2496608 0.06465851 0.14636776 0.21256433 0.061040275 0.24243745
-0.018702924 0.05896583 -0.09690957 -0.20076893 -0.1992732 0.045094382 0.10442354 -0.13229093
0.19138084 0.022205051 0.08170557 0.19002242 0.19902797 0.11992077 0.24490182 0.23082888
0.20590286 0.10932565 0.043092888 0.10151316 0.17764027 0.24329825 -0.08841387 0.20267569
-0.26242757 0.33223584 -0.0551676 -0.057648577 0.03087399 -0.034365308 0.23896018 0.17120391
0.2192385 -0.08204561 0.076400265 0.068344906 0.15413389 -0.2001391 0.08863124 -0.044533927
0.19694747 0.12817529 0.03712728 0.13399434 0.031316236 -0.08459144 -0.17917435 0.24425615
0.026892286 0.13556105 0.1261971 -0.074174605 0.080842026 -0.11326474 0.041819923 -0.23530468
0.057834424 -0.151062 -0.012826399 0.15879199 -0.12454469 0.16397639 -0.06625134 -0.0055941436
0.050929 0.0679033 -0.14689045 -0.024656842 0.24776171 -0.021130282 0.12142196 -0.08718794
0.11753339 0.006449058 -0.06333692 0.15896833 0.1363356 -0.0023542834 0.15959108 -0.056942664
-0.15571883 0.2337986 -0.019942544 -0.055610783 0.06976791 0.24282378 -0.070821516 -0.1465406
00000000: cd86 1e3e 0018 173e 9278 e23d b7d5 233b
00000010: e270 b73c 2673 e23d 6f9c 9c3e 1416 96bd
00000020: 27dd 7f3e 68fe ae3d 6d76 1c3e 7a35 be3d
00000030: b305 49be c8ff dabd ce47 673e f38c d33d
00000040: 599c 053d 7fab d5bd 7ae8 2bbd 18e4 293d
00000050: 6414 bebb 56bc 603e 6fdd 143e 1c4d 293d
00000060: a14f 213e 3189 4e3e 8b20 0ebe 0fcd f2bd
00000070: f53b 1e3e 34e9 e1bc 650c 9cbd d806 113e
00000080: 9d60 62bc b378 9f3d 15a7 7f3e ae6b 843d
00000090: 6ee1 153e 77aa 593e 5e05 7a3d 8641 783e
000000a0: e036 99bc 2786 713d 8678 c6bd 5f96 4dbe
000000b0: 460e 4cbe e3b4 383d 02dc d53d 4677 07be
000000c0: 57f9 433e 5ee7 b53c 4055 a73d 3d95 423e
000000d0: fdcd 4b3e 0599 f53d 8bc7 7a3e 685e 6c3e
000000e0: 33d8 523e 20e6 df3d 2b82 303d 22e6 cf3d
000000f0: 55e7 353e 2d23 793e 5512 b5bd 378a 4f3e
00000100: e85c 86be d11a aa3e 6cf7 61bd ea20 6cbd
00000110: 73eb fc3c a3c2 0cbd fab1 743e 1450 2f3e
00000120: 0f80 603e 8707 a8bd be77 9c3d 6af8 8b3d
00000130: 46d5 1d3e 44f1 4cbe 4c84 b53d 3569 36bd
00000140: 99ac 493e 6240 033e c612 183d d035 093e
00000150: 7445 003d 473e adbd 7b79 37be 491e 7a3e
00000160: 364d dc3c 84d0 0a3e d039 013e dbe8 97bd
00000170: 8190 a53d 58f7 e7bd 5e4b 2b3d b6f3 70be
00000180: cae3 6c3d ffaf 1abe d125 52bc 5e9a 223e
00000190: 4911 ffbd 6de9 273e c8ae 87bd 144f b7bb
000001a0: ed9a 503d e310 8b3d 736a 16be 25fd c9bc
000001b0: 3fb5 7d3e 6a19 adbc 14ac f83d 978f b2bd
000001c0: 59b5 f03d 9f52 d33b cab6 81bd 98c8 223e
000001d0: 8f9b 0b3e 524a 1abb d86b 233e b63c 69bd
000001e0: c274 1fbe e668 6f3e 8c5e a3bc 22c8 63bd
000001f0: 7ae2 8e3d cca6 783e df0a 91bd bd0e 16be

layers.3.weight f4 [64, 128]
0.21549025 0.0835337 0.120303765 -0.14800747 0.33318898 0.30707672 0.02817397 0.20290385
0.26744184 0.07297456 0.24430342 0.14463104 0.22153834 0.36873654 0.05852355 -0.14888902
0.1601093 0.060757127 -0.01819966 0.047473826 0.2890554 -0.059029948 -0.038127217 -0.059678823
0.018239079 0.24976078 0.21518949 0.25747803 -0.07523317 0.21324925 0.0391025 0.08542998
0.15645114 -0.06274932 -0.002270765 0.18715185 0.25745255 0.28262907 0.23510046 0.021841986
0.016371988 -0.06850964 0.06171696 0.09867398 0.119521976 -0.028667185 -0.043232422 0.32785285
0.30132267 -0.02081016 0.03380076 0.11931988 -0.07158109 -0.015034162 0.079722695 0.07304785
-0.024123704 -0.109430484 0.14250283 0.096595675 -0.026343469 -0.058017507 -0.06454299 0.069025226
-0.06983469 0.016802283 0.20514677 0.0050293165 0.1001443 0.17853785 0.3073417 0.057170272
0.0031371068 0.31244525 0.07898056 0.14493586 0.17883673 0.23258567 -0.0076375175 -0.0034880154
0.013118487 0.025292616 0.23066735 0.15536426 -0.119916365 0.13149358 0.2723576 0.0068356856
0.2240242 0.008585084 0.16894384 -0.010755892 -0.06849013 0.18560022 0.28502923 0.012877738
-0.035919055 0.10912326 -0.004320217 0.1278428 0.031659562 0.010798931 -0.06934924 0.3365364
-0.023547288 0.03624342 0.19580643 -0.22421852 -0.008467221 0.31152886 0.21008448 0.3243498
0.27064973 0.2506078 0.16958578 0.159386 0.34887642 0.044422906 -0.14529845 0.19454074
0.07290756 0.101337045 0.20649175 0.13315682 -0.08417817 -0.034269895 0.2903382 0.21751198
0.0630418 0.03005218 0.058838133 -0.05927072 -0.022253945 0.106379755 -0.025366794 0.030655123
0.12005352 0.018677711 0.097751096 -0.005341509 -0.10085863 0.089320466 0.043339167 -0.18342176
0.003511978 -0.13103782 -0.11497432 -0.0111414865 0.01128144 0.05031129 -0.15647274 0.074427865
0.008444928 0.26580682 0.08121883 0.26605082 -0.06888018 0.13386504 0.05531548 0.13665922
0.03184685 -0.05675758 0.10398611 0.13269554 -0.08919517 0.1266273 0.14379415 0.017436786
0.10857762 -0.09558104 -0.1730737 -0.11210892 -0.06227086 0.084686026 -0.057478204 0.18431382
-0.09163657 0.0971543 0.07150774 0.006521297 -0.08395772 -0.13456544 0.16911866 0.1605071
-0.0824785 0.17184289 0.15367126 -0.07116517 0.07688154 0.018403845 -0.04537618 -0.00022452856
-0.20165558 0.065178305 0.23487033 0.045356717 0.026161939 0.19121762 0.28725657 0.006575238
-0.04752174 0.0602702 0.09562862 0.15139808 0.062340762 0.011389956 -0.027559403 -0.009645232
-0.11283601 0.03909942 0.17645086 0.0106522385 0.060986247 0.2542323 -0.022333082 0.06544485
0.19845524 0.020612665 0.2313108 -0.08672249 -0.025900578 0.036017023 0.14932719 -0.12307119
-0.01472867 0.14517152 0.018246373 0.16305734 0.122482084 -0.05481209 0.07743953 0.16140527
0.019496044 0.25133765 0.21507098 -0.013096458 -0.04718776 0.02550333 0.17681864 0.10032896
-0.042635698 0.1634615 0.085564084 0.13410832 0.03252916 -0.027780462 -0.15903851 0.22343872
0.08154331 0.16644624 0.12223154 0.10221687 0.0018134319 -0.010067834 0.15192321 0.15208155
00000000: 7aa9 5c3e b713 ab3d d261 f63d 458f 17be
00000010: bf97 aa3e 2939 9d3e 19cd e63c 07c6 4f3e
00000020: 23ee 883e b073 953d ad2a 7a3e 291a 143e
00000030: f2da 623e 09cb bc3e 64b6 6f3d 5d76 18be
00000040: b1f3 233e 77dc 783d 7417 95bc ea73 423d
00000050: 12ff 933e 63c9 71bd 492b 1cbd c871 74bd
00000060: 1f6a 953c 4ac1 7f3e a25a 5c3e 29d4 833e
00000070: d913 9abd 035e 5a3e f129 203d eaf5 ae3d
00000080: ba34 203e b782 80bd 1dd1 14bb bca4 3f3e
00000090: d2d0 833e c2b4 903e 2dbe 703e f7ed b23c
000000a0: 8c1e 863c c84e 8cbd ecca 7c3d 9515 ca3d
000000b0: f0c7 f43d 72d7 eabc 7b14 31bd 54dc a73e
000000c0: f746 9a3e 127a aabc aa72 0a3d fb5d f43d
000000d0: 1b99 92bd d951 76bc a745 a33d 1c9a 953d
000000e0: 139f c5bc 171d e0bd 43ec 113e f4d3 c53d
000000f0: 42ce d7bc c4a3 6dbd 1d2f 84bd 195d 8d3d
00000100: 7d05 8fbd f1a4 893c ff11 523e f7cc a43b
00000110: 7418 cd3d a0d2 363e e45b 9d3e 602b 6a3d
00000120: eb97 4d3b d3f8 9f3e 8fc0 a13d 116a 143e
00000130: fa20 373e f02a 6e3e 2444 fabb 3097 64bb
00000140: ecee 563c 7632 cf3c 1034 6c3e cf17 1f3e
00000150: b696 f5bd 41a6 063e 7572 8b3e e3fd df3b
00000160: 9a66 653e 74a8 0c3c 9dff 2c3e 7b39 30bc
00000170: 8e44 8cbd fc0d 3e3e 5aef 913e 26fd 523c
00000180: dc1f 13bd 047c df3d 9b90 8dbb 39e9 023e
00000190: 75ad 013d 00ee 303c f906 8ebd 804e ac3e
000001a0: 3ee6 c0bc fb73 143d 7b81 483e 8a99 65be
000001b0: 19ba 0abc b680 9f3e 6320 573e 2d11 a63e
000001c0: 9a92 8a3e aa4f 803e e5a7 2d3e 1536 233e
000001d0: ee9f b23e cbf4 353d 1ec9 14be b035 473e
000001e0: 8f50 953d cc89 cf3d 9372 533e 435a 083e
000001f0: 9b65 acbd 975e 0cbd 35a7 943e 76bb 5e3e
00000200: 0f1c 813d fd2f f63c 4100 713d dbc5 72bd
00000210: e84d b6bc a1dd d93d 06ce cfbc 7420 fb3c
00000220: 9fde f53d 0002 993c ba31 c83d d307 afbb
00000230: f88e cebd a6ed b63d 6984 313d ead2 3bbe
00000240: 3729 663b c72e 06be a877 ebbd c88a 36bc
00000250: cad5 383c 3613 4e3d 643a 20be a36d 983d
00000260: 985c 0a3c d517 883e 0f56 a63d d037 883e
00000270: 0d11 8dbd eb13 093e 7c92 623d 65f0 0b3e
00000280: d871 023d a37a 68bd abf6 d43d 57e1 073e
00000290: f5ab b6bd 96aa 013e c63e 133e 97d7 8e3c
000002a0: f15d de3d febf c3bd 3b3a 31be 5d99 e5bd
000002b0: bb0f 7fbd de6f ad3d 446e 6bbd c3bc 3c3e
000002c0: f4ab bbbd d5f8 c63d a672 923d 9bb0 d53b
000002d0: 06f2 abbd 86cb 09be 712d 2d3e f95b 243e
000002e0: 7dea a8bd 95f7 2f3e 005c 1d3e 0bbf 91bd
000002f0: 1274 9d3d a9c3 963c 60dc 39bd 6d6f 6bb9
00000300: cd7e 4ebe 347c 853d d981 703e f7c7 393d
00000310: 9051 d63c 8dce 433e 4b13 933e 1875 d73b
00000320: 28a6 42bd e3dd 763d f0d8 c33d 1908 1b3e
00000330: 0759 7f3d f09c 3a3c 42c4 e1bc 0907 1ebc
00000340: 9116 e7bd b726 203d 89af 343e ba86 2e3c
00000350: b7cc 793d bc2a 823e def3 b6bc f307 863d
00000360: da37 4b3e e4db a83c bddc 6c3e 909b b1bd
00000370: 732d d4bc 9686 133d 3ae9 183e c00c fcbd
00000380: 8550 71bc d8a7 143e 6b79 953c 81f8 263e
00000390: e3d7 fa3d a482 60bd 9e98 9e3d 6c47 253e
000003a0: 2bb6 9f3c 54af 803e 913b 5c3e 8792 56bc
000003b0: f447 41bd 5cec d03c f20f 353e 4579 cd3d
000003c0: c5a2 2ebd 7462 273e 393c af3d b153 093e
000003d0: 4c3d 053d da93 e3bc feda 22be 1fcd 643e
000003e0: 2e00 a73d e270 2a3e 8854 fa3d 1457 d13d
000003f0: adb0 ed3a 8ef3 24bc c291 1b3e 44bb 1b3e

layers.3.bias f4 [64]
0.040293768 0.07091828 0.18525194 0.24109502 -0.01944512 -0.09796082 -0.046748187 -0.04714357
-0.10315804 0.039493605 0.032365948 0.03710907 0.11984739 -0.106171265 0.25719634 0.09563646
0.22469568 0.14192529 0.24039091 0.017514996 0.17741002 -0.10864163 0.049183 0.024205498
0.032193284 0.15361756 -0.116255246 0.07818537 0.18717079 0.06081833 0.092119716 0.05468244
0.059033506 -0.07812473 0.062174495 0.058954526 0.07704315 -0.043239053 0.009357236 -0.025477186
-0.046355955 0.09270682 0.19453268 -0.037229303 -0.07207443 -0.04995806 0.08790633 0.04291294
0.17997746 0.062600195 0.03646157 0.07193843 -0.11654101 0.06017837 0.15266834 0.11146814
0.1942153 0.12672718 0.19911277 -0.070588104 0.039533127 -0.048896242 -0.011292911 0.124995835
00000000: 140b 253d 9a3d 913d afb2 3d3e 9de1 763e
00000010: 5f4b 9fbc af9f c8bd 077b 3fbd 9e19 41bd
00000020: 8644 d3bd 0cc4 213d 2892 043d aeff 173d
00000030: 8c72 f53d 5270 d9bd 3daf 833e 0cdd c33d
00000040: a016 663e dd54 113e 0929 763e 9c7b 8f3c
00000050: f9aa 353e 817f debd 1d74 493d 9c4a c63c
00000060: 1bdd 033d ec4d 1d3e 3b17 eebd a71f a03d
00000070: b3a9 3f3e a41c 793d 43a9 bc3d b2fa 5f3d
00000080: 1ecd 713d dcff 9fbd afaa 7e3d 4d7a 713d
00000090: cdc8 9d3d 6f1b 31bd 184f 193c 88b5 d0bc
000000a0: bedf 3dbd 13dd bd3d 9333 473e c17d 18bd
000000b0: c29b 93bd d3a0 4cbd 3c08 b43d 7bc5 2f3d
000000c0: 034c 383e 8834 803d ba58 153d 7554 933d
000000d0: 0ead eebd 987d 763d 1755 1c3e 6849 e43d
000000e0: 60e0 463e c5c4 013e 38e4 4b3e 7f90 90bd
000000f0: 7ded 213d 6d47 48bd e705 39bc d1fd ff3d

layers.6.weight f4 [32, 64]
0.15149063 0.11672217 -0.09277208 -0.12230838 0.35371935 0.38770398 -0.20514815 -0.03093023
0.21500902 -0.1319054 -0.18716146 -0.17047207 0.0693414 0.09600358 -0.046421636 -0.098760426
-0.08732786 -0.08204546 -0.0038693398 0.2752709 -0.14583471 -0.060722273 0.21537466 0.2589251
0.025141899 -0.1379786 0.212783 0.23973452 0.27920794 -0.19398203 0.08886341 0.18412589
-0.013028265 -0.04496724 0.31809837 0.24336556 0.027207691 0.2883037 0.22987154 0.3234955
-0.13432859 0.0936724 0.17835692 0.22620466 0.06661582 -0.21588466 -0.039846174 0.20835193
0.176575 -0.0076816333 0.2862286 0.32541612 0.27076566 -0.099958695 0.25667593 -0.007181732
-0.1752067 0.29423368 -0.025202325 -0.025816202 -0.0038935316 -0.12042728 -0.17856114 0.3055412
-0.4910004 -0.19212744 -0.04337277 -0.015451816 -0.1892914 -0.0041648983 0.16988964 0.27098042
0.024118189 0.112380885 -0.00033100322 0.12854344 0.12926643 0.050744753 -0.025724486 -0.10488014
0.13366038 0.17685525 -0.01397619 -0.24014501 0.042290412 0.2060506 -0.49712244 -0.3555451
0.088600956 0.095811896 -0.052298494 -0.002997078 -0.39329803 0.056994632 0.11025966 -0.049733296
-0.0047731255 0.2626917 -0.19372705 -0.3929818 -0.051921457 -0.45278242 -0.22006965 -0.18360701
0.11670958 0.08162227 0.03463401 -0.47035974 0.11876585 0.23153582 0.1138505 -0.39603028
0.05884609 0.0737414 -0.23771065 -0.23867746 0.028420987 -0.04137395 -0.20540565 -0.13877437
0.045690734 -0.39182967 0.0996414 0.16189808 0.0795065 0.15695715 0.12790552 -0.03743069
0.013416873 0.23395935 -0.03732594 -0.03219421 0.054988265 0.11537627 -0.25622687 0.14791985
0.34579244 0.012543292 0.17250565 0.12479491 0.023734583 -0.051187787 -0.1258633 -0.02217278
0.0627316 0.10592651 0.03257186 0.1986986 0.06806307 -0.15000826 0.19911352 0.148324
-0.01686452 -0.039419737 -0.021159204 0.047367536 0.25736573 0.037473485 0.04299268 -0.0656343
0.14314781 0.07632818 0.19990458 0.19089164 0.31194714 0.06719698 0.26810983 0.11660064
-0.077074245 -0.08474975 0.14486425 0.11579233 -0.3062327 0.040335093 0.091816574 0.19006759
0.19677594 -0.018329943 0.05971158 0.18378375 0.14969955 -0.14587976 0.30140296 -0.20117755
0.0033021956 0.08988319 0.008423922 -0.038007595 0.063419126 0.27628893 -0.012855729 0.11019173
0.091004394 -0.02976993 -0.044651814 0.0062558623 0.06749656 -0.041697193 0.38855794 -0.11183382
-0.3549875 0.07735417 -0.11304286 -0.11411741 0.052673552 -0.05521266 0.0511642 -0.26288176
0.08574078 0.017150415 0.1731537 0.02035637 0.0847039 0.23720144 -0.032674056 0.14404625
0.033161517 0.10546963 -0.00868162 -0.34380403 -0.04828972 0.28088644 0.17851871 0.24409525
-0.19694582 -0.107091926 0.036779795 -0.0027513392 -0.09463625 0.09225718 -0.088634975 0.16453068
0.095081374 -0.06476762 -0.0062562046 0.057536997 0.21919361 -0.111602634 -0.13317625 0.10091545
-0.053107966 0.16355747 -0.08517425 0.054042857 0.19849244 0.23320748 -0.13029131 0.20093277
0.005379645 0.12393235 0.073831156 -0.051133692 0.090799145 -0.33885723 0.10026537 0.014319935
00000000: 5c20 1b3e 080c ef3d 4aff bdbd d17c fabd
00000010: b41a b53e 2381 c63e 5b12 52be 6561 fdbc
00000020: 532b 5c3e 3612 07be 41a7 3fbe 3b90 2ebe
00000030: dd02 8e3d 869d c43d 9d24 3ebd e842 cabd
00000040: f3d8 b2bd 7307 a8bd c094 7dbb 4ff0 8c3e
00000050: b255 15be ebb7 78bd 2d8b 5c3e d591 843e
00000060: 62f6 cd3c 434a 0dbe c9e3 593e f77c 753e
00000070: 58f4 8e3e 3aa3 46be 05fe b53d 7f8b 3c3e
00000080: 8174 55bc 922f 38bd cadd a23e d234 793e
00000090: aae2 de3c 8b9c 933e 7263 6b3e 34a1 a53e
000000a0: 6f8d 09be 51d7 bf3d 32a3 363e 32a2 673e
000000b0: e06d 883d de10 5dbe be35 23bd 355a 553e
000000c0: 14d0 343e 36b6 fbbb 8e8c 923e f19c a63e
000000d0: cca1 8a3e 25b7 ccbd 076b 833e bc54 ebbb
000000e0: 6369 33be cca5 963e 1b75 cebc 807c d3bc
000000f0: 9f2a 7fbb 94a2 f6bd bbd8 36be e56f 9c3e
00000100: 6864 fbbe 0ebd 44be a5a7 31bd 9d29 7dbc
00000110: 9bd5 41be b379 88bb 8df7 2d3e f2bd 8a3e
00000120: 8293 c53c f327 e63d 808a adb9 e4a0 033e
00000130: 6b5e 043e bbd9 4f3d 28bc d2bc 66cb d6bd
00000140: 44de 083e 8b19 353e 64fc 64bc 93e8 75be
00000150: b638 2d3d eefe 523e d586 febe 020a b6be
00000160: 6b74 b53d 0739 c43d f236 56bd a06a 44bb
00000170: 5c5e c9be 3473 693d d1cf e13d 24b5 4bbd
00000180: e167 9cbb 877f 863e 6260 46be e934 c9be
00000190: 98ab 54bd 19d3 e7be f059 61be 7a03 3cbe
000001a0: 6f05 ef3d 9429 a73d 64dc 0d3d fed2 f0be
000001b0: 833b f33d ba17 6d3e 732a e93d 7bc4 cabe
000001c0: 9908 713d bb05 973d 6c6a 73be dd67 74be
000001d0: 21d3 e83c bb77 29bd dc55 52be de1a 0ebe
000001e0: 3526 3b3d e69d c8be ca10 cc3d 9cc8 253e
000001f0: 4ed4 a23d 60b9 203e aaf9 023e ec50 19bd
00000200: 72d2 5b3c 0a93 6f3e 16e3 18bd 13de 03bd
00000210: 603b 613d 654a ec3d 2b30 83be 4d78 173e
00000220: b50b b13e 6182 4d3c 52a5 303e 7994 ff3d
00000230: 076f c23c 49aa 51bd 4fe2 00be b1a3 b5bc
00000240: 6d79 803d 00f0 d83d 126a 053d a577 4b3e
00000250: a764 8b3d c49b 19be 6ae4 4b3e 3fe2 173e
00000260: 7627 8abc 9776 21bd 1156 adbc 7604 423d
00000270: 71c5 833e cc7d 193d 1819 303d 476b 86bd
00000280: 5795 123e f351 9c3d c9b3 4c3e 1979 433e
00000290: 89b7 9f3e 929e 893d b145 893e 51cc ee3d
000002a0: 1ad9 9dbd 4791 adbd 4b57 143e 8724 ed3d
000002b0: 88ca 9cbe 6936 253d 540a bc3d 14a1 423e
000002c0: a27f 493e ad28 96bc 2194 743d cf31 3c3e
000002d0: d74a 193e 8161 15be 7d51 9a3e 7d01 4ebe
000002e0: a669 583b ae14 b83d 7d04 0a3c daad 1bbd
000002f0: e3e1 813d be75 8d3e d6a0 52bc 34ac e13d
00000300: 8360 ba3d 11e0 f3bc d2e4 36bd fafd cc3b
00000310: a33b 8a3d adca 2abd 11f1 c63e 2109 e5bd
00000320: ecc0 b5be dd6b 9e3d 0483 e7bd 63b6 e9bd
00000330: 39c0 573d ac26 62bd 8d91 513d 7098 86be
00000340: dd98 af3d 077f 8c3c 344f 313e 67c2 a63c
00000350: 3d79 ad3d efe4 723e 3bd5 05bd dc80 133e
00000360: 5fd4 073d 7600 d83d 5a3d 0ebc 1507 b0be
00000370: 71cb 45bd 59d0 8f3e 9ccd 363e 1bf4 793e
00000380: 2aac 49be 0353 dbbd 69a6 163d d04f 34bb
00000390: a6d0 c1bd 55f1 bc3d 4186 b5bd bb7a 283e
000003a0: 06ba c23d e3a4 84bd d900 cdbb eaab 6b3d
000003b0: 4a74 603e ec8f e4bd 5b5f 08be c2ac ce3d
000003c0: bd87 59bd 9c7b 273e d66f aebd 0b5c 5d3d
000003d0: 9a41 4b3e f1cd 6e3e 166b 05be 52c1 4d3e
000003e0: bc47 b03b 3ed0 fd3d ca34 973d 9071 51bd
000003f0: e7f4 b93d b27e adbe ee57 cd3d 299e 6a3c

layers.6.bias f4 [32]
0.08741349 -0.026210336 0.0053403247 -0.028426586 -0.07923053 0.029391138 0.08642095 0.08563236
0.2518885 -0.0833712 -0.15041113 0.15463811 0.035394363 0.1662395 -0.14206767 -0.06839238
-0.04905216 -0.10339179 0.10323876 0.0028230902 0.002251483 -0.06511524 0.08403451 0.18626522
-0.093122475 0.25856617 -0.08619193 0.0876859 0.09269345 0.017585985 -0.10861719 0.0070010535
00000000: d805 b33d 0fb7 d6bc e4fd ae3b dfde e8bc
00000010: 9e43 a2bd afc5 f03c 78fd b03d 0560 af3d
00000020: 88f7 803e 85be aabd 6005 1abe 7459 1e3e
00000030: aef9 103d b03a 2a3e 307a 11be 4e11 8cbd
00000040: ebea 48bd 13bf d3bd d86e d33d 9803 393b
00000050: 9e8d 133b 245b 85bd 491a ac3d 4fbc 3e3e
00000060: ffb6 bebd c962 843e 6585 b0bd aa94 b33d
00000070: 10d6 bd3d 7c10 903c b072 debd 1869 e53b

layers.8.weight f4 [7, 32]
0.24678446 -0.2388693 0.15255494 -0.24787001 0.14181712 -0.3888251 -0.54719025 0.17650962
-0.58349943 0.2778851 -0.1130357 0.08895491 -0.096110806 0.20922525 0.08050795 -0.0052805883
-0.12065878 0.10542568 -0.07689125 0.06716624 -0.0234407 0.17757832 -0.3184722 -0.25275898
-0.066351004 -0.5053135 -0.09870276 -0.123841554 -0.21135159 0.11224586 0.14996915 -5.7315647e-05
0.21457209 -0.15470876 0.085142456 0.051731057 0.12378514 -0.16273576 0.026784493 0.18478908
-0.10015833 0.13307478 -0.053312264 0.23444903 -0.100013606 0.03407644 -0.12790091 -0.0894643
0.076878384 -0.2942808 0.063941926 -0.1617117 -0.18125042 0.14258045 -0.14842999 -0.3058963
0.0619257 -0.0778281 0.0011546415 0.23041046 0.08657393 -0.08336964 -0.2380498 -0.34972516
-0.41908038 -0.33596206 -0.02722459 -0.018046578 0.10162195 0.19223593 -0.12788033 -0.01976045
0.06433336 -0.17651574 -0.20770265 -0.17947437 0.20629455 0.08364329 0.13661551 -0.18328685
-0.16553885 0.041068383 0.112517595 -0.26638365 -0.17991723 -0.3839754 0.1628551 0.14969525
0.20419091 0.22908455 -0.09033905 -0.16156586 0.16269901 -0.14350478 -0.19249673 0.13573366
-0.1707037 0.12806448 0.014188891 -0.28702283 0.051750913 -0.02260065 0.086917005 -0.2401341
0.0064349547 0.048228815 -0.11333579 -0.02919315 0.14757511 -0.4040822 -0.072211534 0.15945901
0.32020518 0.07483821 -0.3469025 0.2611922 -0.119159594 -0.0030708984 0.18945554 0.17274699
0.22195849 -0.16253014 0.09569065 -0.26589382 0.21471407 -0.36787045 -0.04587088 0.26376086
-0.16537443 0.1863902 -0.3277313 0.23215814 -0.13321428 0.1927824 0.10335215 -0.15504733
-0.011027084 -0.14852433 0.004277129 -0.30346942 0.21549074 -0.15756099 0.15683971 0.34244135
-0.10527946 -0.0925794 -0.391699 0.26827964 0.1740657 -0.14316797 -0.2821389 0.14123987
0.06327393 0.03059063 0.11775628 0.19785713 -0.27564675 -0.41143477 0.021292252 -0.05404086
-0.010097238 -0.22615151 0.08116612 0.21582417 -0.17906934 0.11989499 0.06930537 0.18544495
-0.07863425 -0.3377195 -0.055711757 0.15429114 -0.19320244 -0.15895613 0.12888804 -0.13483152
-0.09726245 -0.09368546 0.20755063 -0.109617524 0.07449205 0.06097469 -0.019943317 0.002929745
-0.112320535 0.17608245 -0.2471984 0.07795345 -0.05280821 0.15659362 -0.6232219 -0.3779744
-0.06174065 -0.3408988 0.056395877 -0.16961166 -0.13992508 -0.06610466 0.13047291 -0.1467943
-0.007648428 -0.23964064 -0.11087215 0.21125013 -0.048496973 0.20667237 0.11147659 -0.04133801
-0.017168915 -0.077684686 -0.09692626 -0.3770281 0.10766163 -0.28530842 0.27962086 -0.053056676
-0.034810327 0.18895309 -0.58405864 0.16079153 0.09497352 0.19636674 -0.21459691 0.17111364
00000000: 11b5 7c3e 279a 74be 5d37 1c3e a3d1 7dbe
00000010: 8238 113e 1514 c7be a914 0cbf f0be 343e
00000020: 3860 15bf f546 8e3e 437f e7bd fe2d b63d
00000030: bed5 c4bd 253f 563e 5ae1 a43d c908 adbb
00000040: f31b f7bd 6be9 d73d 2979 9dbd 748e 893d
00000050: b606 c0bc 17d7 353e ca0e a3be a069 81be
00000060: 09e3 87bd 3a5c 01bf ac24 cabd a4a0 fdbd
00000070: 8d6c 58be 28e1 e53d 8391 193e 3566 70b8
00000080: c9b8 5b3e f96b 1ebe 2b5f ae3d f2e3 533d
00000090: 1083 fd3d 34a4 26be 276b db3c 5939 3d3e
000000a0: cf1f cdbd c144 083e f65d 5abd 6813 703e
000000b0: efd3 ccbd bd93 0b3d 75f8 02be 0f39 b7bd
000000c0: 6a72 9d3d f9ab 96be fcf3 823d c097 25be
000000d0: b699 39be 9c00 123e 08fe 17be 719e 9cbe
000000e0: cea5 7d3d 5764 9fbd 5757 973a b8f0 6b3e
000000f0: ac4d b13d b4bd aabd 54c3 73be 2d0f b3be
00000100: b491 d6be 3803 acbe 1a06 dfbc 6bd6 93bc
00000110: 2b1f d03d 7fd9 443e 10f3 02be abe0 a1bc
00000120: 35c1 833d 8bc0 34be 01b0 54be 21c8 37be
00000130: e13e 533e 2c4d ab3d f0e4 0b3e 8caf 3bbe
00000140: 0483 29be 5237 283d a06f e63d 7063 88be
00000150: 393c 38be 6c98 c4be 7dc3 263e b649 193e
00000160: 6c17 513e 2495 6a3e ae03 b9bd 8571 25be
00000170: 929a 263e ebf2 12be dd1d 45be c4fd 0a3e
00000180: f3cc 2ebe 5623 033e 8678 683c a8f4 92be
00000190: c4f8 533d 0025 b9bc 8b01 b23d b7e5 75be
000001a0: 50dc d23b 948b 453d 981c e8bd 7926 efbc
000001b0: ee1d 173e dde3 cebe a4e3 93bd 3949 233e
000001c0: eff1 a33e c744 993d 349d b1be fcba 853e
000001d0: f209 f4bd 2041 49bb a200 423e 96e4 303e
000001e0: 1649 633e 4d6e 26be 76f9 c33d 3c23 88be
000001f0: 01de 5b3e 8459 bcbe 1be3 3bbd aa0b 873e
00000200: ea57 29be 13dd 3e3e 66cc a7be ddba 6d3e
00000210: 5369 08be c068 453e 4baa d33d bac4 1ebe
00000220: f1aa 34bc c316 18be 2927 8c3b 5860 9bbe
00000230: 9ba9 5c3e ab57 21be 979a 203e 7954 af3e
00000240: c29c d7bd 459a bdbd c58c c8be f35b 893e
00000250: 473e 323e a09a 12be 8374 90be 2fa1 103e
00000260: c395 813d 3399 fa3c 342a f13d 0f9b 4a3e
00000270: 9221 8dbe 94a7 d2be 176d ae3c f359 5dbd
00000280: e36e 25bc 4394 67be 6c3a a63d 0301 5d3e
00000290: f45d 37be 818b f53d f9ef 8d3d 48e5 3d3e
000002a0: fe0a a1bd 92e9 acbe 0332 64bd 7ffe 1d3e
000002b0: dcd6 45be 65c5 22be 3afb 033e 4611 0abe
000002c0: 8931 c7bd 2ade bfbd 2788 543e 277f e0bd
000002d0: 4a8f 983d 99c0 793d 2b60 a3bc f700 403b
000002e0: 4f08 e6bd f54e 343e 9421 7dbe 0fa6 9f3d
000002f0: 6c4d 58bd 145a 203e 788b 1fbf dc85 c1be
00000300: c4e3 7cbd 4a8a aebe 5dff 663d aeae 2dbe
00000310: 8548 0fbe e161 87bd b19a 053e 3f51 16be
00000320: aa9f fabb 5b64 75be f010 e3bd f451 583e
00000330: c3a4 46bd eca1 533e d74d e43d 0c52 29bd
00000340: d3a5 8cbc 2619 9fbd 4681 c6bd d409 c1be
00000350: b37d dc3d f213 92be 772a 8f3e f551 59bd
00000360: 4695 0ebd eb7c 413e de84 15bf 89a6 243e
00000370: 7a81 c23d 5d14 493e 4bbf 5bbe 6a38 2f3e

layers.8.bias f4 [7]
-0.03635019 0.07445713 -0.06010016 -0.10233202 -0.18694468 0.009175953 -0.030744152
00000000: f0e3 14bd fb7c 983d 962b 76bd 7393 d1bd
00000010: 6d6e 3fbe bd56 163c 29db fbbc
